gandalf.pt (torch, 91755 bytes, 24 tensors)

encoder.block1.c1.weight f4 [8, 1, 8]
0.33616573 -0.4828458 0.14587809 0.32399657 0.24352188 -0.60721904 0.11016682 0.5515581
-0.56213975 0.23624174 0.28216964 -0.60345304 0.037616473 0.27473423 -0.14242785 -0.22837025
-0.29152 0.15808275 -0.3831677 -0.030177046 0.59153825 0.051581454 -0.60399216 0.10884031
-0.6829953 -0.22125277 0.6353842 0.20627938 0.23767354 0.1271497 0.36485937 -0.7283832
0.3565657 0.2027093 -0.032819435 -0.18421261 0.28199664 0.3570829 -0.23234865 -0.06135789
0.34568235 0.0056850472 0.10987529 -0.06083895 -0.23387538 -0.041589517 -0.20926979 -0.4521852
0.5084273 -0.36280626 0.03242375 0.036090817 -0.59093577 -0.63516694 0.39268458 0.629206
-0.41923207 -0.19259033 -0.39611784 -0.42649528 -0.4066366 -0.2956775 0.29568925 0.21985723
00000000: ea1d ac3e 9137 f7be 1161 153e e1e2 a53e
00000010: cd5d 793e b572 1bbf 249f e13d e932 0d3f
00000020: 64e8 0fbf 5be9 713e 8a78 903e e67b 1abf
00000030: bb13 1a3d f7a9 8c3e 9bd8 11be e4d9 69be
00000040: 1c42 95be 72e0 213e 8f2e c4be da35 f7bc
00000050: 0d6f 173f 1347 533d 3b9f 1abf abe7 de3d
00000060: c8d8 2ebf 1690 62be 8aa8 223f e73a 533e
00000070: b160 733e 8833 023e d9ce ba3e 5277 3abf
00000080: c88f b63e 0793 4f3e ac6d 06bd 3ba2 3cbe
00000090: dd61 903e 92d3 b63e ceec 6dbe 6952 7bbd
000000a0: 47fd b03e a249 ba3b 4c06 e13d 4332 79bd
000000b0: 077d 6fbe c559 2abd d24a 56be d284 e7be
000000c0: 4b28 023f bec1 b9be c4ce 043d f7d3 133d
000000d0: 9147 17bf 4d9a 22bf f40d c93e a513 213f
000000e0: 96a5 d6be 6636 45be f5cf cabe 975d dabe
000000f0: ac32 d0be 0b63 97be 9564 973e 4122 613e

encoder.block1.c2.weight f4 [8, 8, 5]
0.59256405 0.11139687 -0.9979612 -0.11473236 0.1966698 -1.247023 -0.43041995 0.42409298
-0.094226435 -0.54034275 0.28750265 -0.9351265 -0.36334404 0.36563793 -0.10818687 -0.4104773
0.13978189 0.12306726 -0.10228724 -0.40535375 -0.16227683 -0.18989472 0.11087057 0.10863147
-0.683243 -0.25017047 -0.20739348 -0.042629078 0.06855144 0.27201265 0.021130456 -0.1456885
-0.030076852 0.17279875 0.067812495 -0.03777715 0.060673505 0.08097623 -0.11486143 -0.08629152
-0.13104923 -0.08481487 -0.050858412 0.07615446 0.19287686 0.17106777 0.16212317 -0.12233812
-0.11200318 -0.28709048 -0.16080761 0.22203082 0.051556394 -0.17298199 0.116103314 -0.009226495
0.15538211 0.42846146 0.22886539 -0.30016452 -0.1847958 -0.16927598 -0.028860746 0.097992904
-0.08899976 -0.14051676 -0.13411419 -0.27915865 -0.07609051 -0.55401695 -0.0490216 0.42668238
0.24146423 0.43551022 0.58447933 -0.15864113 -0.33006924 -0.106811434 -0.029476522 0.21063049
0.2843608 0.4440819 -0.4039431 0.24565613 0.47551566 0.07584299 -0.17621627 -0.2140431
-0.104474016 0.15040594 -0.30395135 -0.27592185 -0.16054782 0.16606484 0.15515657 -0.5943058
-0.044847414 0.09123019 -0.00060107134 -0.5331497 -0.11983165 -0.25530645 0.17947125 0.34235728
-0.06698871 -0.06073815 -0.18359978 -0.10812127 -0.2803709 -0.43817702 -0.044425715 0.08446123
-0.68429726 -0.2537244 0.5754341 0.031914655 0.23905051 0.2312037 -0.010100806 0.0014920322
-0.83280313 -0.70279044 0.34098756 0.3788962 -0.33971784 -0.15221478 -0.45379797 -1.2389722
-0.91142344 0.1805764 -0.36480948 0.0031325675 0.16192198 -0.6864927 -0.76656306 0.40999743
-0.0719894 0.14596592 0.5501336 0.4368547 -0.09956947 0.35963544 -0.2726674 -0.5821777
-0.19942117 0.06796262 0.040211417 -0.012341353 -0.34310192 -0.47916108 -0.11418404 -0.5980345
0.12214004 0.6206608 0.15378292 0.13506606 -0.025204206 -0.07451912 0.10358978 -0.0022023616
-0.094154336 -0.11277074 -0.2552901 -0.5760656 -0.3780582 -1.182428 -0.5238913 -0.30137143
-0.15246129 0.2336869 -0.9313814 -0.40600488 -0.12281826 -0.108830616 0.058814995 0.1987729
0.3564651 0.078519896 0.07605822 0.61096436 0.36892128 0.11359701 0.10052431 -0.21069795
-0.45839942 0.035792217 -0.10147943 -0.08526792 0.17799795 0.36954838 0.6069095 0.39253494
0.045318294 0.31288245 0.5247466 -0.15299125 -0.13813531 0.097506694 -0.0640495 -0.06943721
-0.5006316 -0.28901553 -0.54692674 -0.9058443 -0.6857279 -0.13257697 -0.6361099 -0.39645377
-0.44702706 -0.28564566 -0.4846961 -0.203313 0.061813403 -0.12005846 -0.2870987 0.24710408
-0.05427705 -0.099878356 -0.07567646 0.05311009 -0.28801566 -0.48182666 -0.46535188 -0.18234813
-0.25419602 -0.22100718 -0.24683541 -0.29175246 -0.30254018 -0.24659784 -0.09959436 -0.17658451
0.09607151 0.2631591 0.36581898 0.1781118 0.08873496 0.011123326 0.031030035 -0.17425509
-0.32172936 -0.11283135 0.24096818 0.16117077 -0.14656618 -0.14613321 0.27807453 0.06477619
-0.23036082 0.33065584 -0.32627633 -0.09714596 0.27890852 0.28883305 0.2136224 -0.3453112
00000000: 47b2 173f 0b24 e43d 637a 7fbf cdf8 eabd
00000010: cf63 493e 739e 9fbf 0160 dcbe b722 d93e
00000020: caf9 c0bd e753 0abf 8c33 933e 7364 6fbf
00000030: 3b08 babe e534 bb3e 1491 ddbd 152a d2be
00000040: fc22 0f3e b00a fc3d f97b d1bd 878a cfbe
00000050: e62b 26be c373 42be 1c10 e33d 2d7a de3d
00000060: 03e9 2ebf 5816 80be f55e 54be d49b 2ebd
00000070: b364 8c3d 3e45 8b3e c719 ad3c 5e2f 15be
00000080: bb63 f6bc 28f2 303e 47e1 8a3d 36bc 1abd
00000090: c884 783d ded6 a53d 783c ebbd 9cb9 b0bd
000000a0: c531 06be 6bb3 adbd e950 50bd dff6 9b3d
000000b0: 8381 453e 642c 2f3e 9e03 263e 698c fabd
000000c0: ec61 e5bd 86fd 92be c0aa 24be 0c5c 633e
000000d0: cc2c 533d 3122 31be 93c7 ed3d ba2a 17bc
000000e0: 7d1c 1f3e 4d5f db3e b05b 6a3e 2aaf 99be
000000f0: 1c3b 3dbe af56 2dbe 5f6d ecbc 81b0 c83d
00000100: 8245 b6bd a0e3 0fbe 3b55 09be e2ed 8ebe
00000110: 57d5 9bbd 0ed4 0dbf e0ca 48bd 1d76 da3e
00000120: 6642 773e 32fb de3e 70a0 153f d272 22be
00000130: d6fe a8be f4bf dabd bf78 f1bc 85af 573e
00000140: bd97 913e b45e e33e a1d1 cebe 488d 7b3e
00000150: ca76 f33e 9253 9b3d 0a72 34be 1d2e 5bbe
00000160: 79f6 d5bd 0404 1a3e 839f 9bbe a145 8dbe
00000170: a666 24be e70c 2a3e 5de1 1e3e 6d24 18bf
00000180: ecb1 37bd e5d6 ba3d 3791 1dba 807c 08bf
00000190: 4c6a f5bd 87b7 82be 50c7 373e 7449 af3e
000001a0: 6031 89bd 91c8 78bd 9501 3cbe af6e ddbd
000001b0: c68c 8fbe bd58 e0be bdf7 35bd 02fa ac3d
000001c0: 1b2e 2fbf 2ae8 81be a64f 133f f1b8 023d
000001d0: a8c9 743e aac0 6c3e da7d 25bc 4b90 c33a
000001e0: 9632 55bf 13ea 33bf ec95 ae3e affe c13e
000001f0: 7fef adbe 31de 1bbe 3558 e8be a496 9ebf
00000200: 0c53 69bf 05e9 383e 4fc8 babe c34b 4d3b
00000210: e0ce 253e fcbd 2fbf 7a3d 44bf 2feb d13e
00000220: 2e6f 93bd 1778 153e 8ed5 0c3f 6bab df3e
00000230: 14eb cbbd 2322 b83e 109b 8bbe 9909 15bf
00000240: 1035 4cbe fc2f 8b3d bab4 243d 6333 4abc
00000250: 0eab afbe 9a54 f5be 52d9 e9bd ca18 19bf
00000260: 8f24 fa3d a0e3 1e3f 4579 1d3e c24e 0a3e
00000270: 0d79 cebc 7b9d 98bd e126 d43d 7f55 10bb
00000280: fdd3 c0bd 59f4 e6bd 62b5 82be 0979 13bf
00000290: d890 c1be cd59 97bf be1d 06bf 5b4d 9abe
000002a0: d01e 1cbe 9e4b 6f3e 036f 6ebf dfdf cfbe
000002b0: 2488 fbbd 96e2 debd fee7 703d 208b 4b3e
000002c0: 9882 b63e 0acf a03d 69c4 9b3d 2968 1c3f
000002d0: 40e3 bc3e 8da5 e83d b0df cd3d 34c1 57be
000002e0: 54b3 eabe dc9a 123d 73d4 cfbd f2a0 aebd
000002f0: 1845 363e 7235 bd3e 6c5e 1b3f 57fa c83e
00000300: ad9f 393d 2132 a03e cb55 063f bda9 1cbe
00000310: 5873 0dbe 97b1 c73d 622c 83bd 1935 8ebd
00000320: 6429 00bf d8f9 93be 6403 0cbf 69e5 67bf
00000330: dd8b 2fbf 42c2 07be 19d8 22bf fdfb cabe
00000340: bbe0 e4be 2640 92be 162a f8be 4831 50be
00000350: 0d30 7d3d 36e1 f5bd 9afe 92be da08 7d3e
00000360: 9d51 5ebd 068d ccbd 43fc 9abd f789 593d
00000370: ca76 93be fcb1 f6be 9a42 eebe 78b9 3abe
00000380: fb25 82be b54f 62be 6cc2 7cbe 9460 95be
00000390: 8ce6 9abe 2584 7cbe 21f8 cbbd 92d2 34be
000003a0: 24c1 c43d cabc 863e a04c bb3e f162 363e
000003b0: adba b53d 9c3e 363c b332 fe3c ed6f 32be
000003c0: b6b9 a4be 1f14 e7bd 5dc0 763e f309 253e
000003d0: 7215 16be f2a3 15be c95f 8e3e 61a9 843d
000003e0: b5e3 6bbe b94b a93e b10d a7be 76f4 c6bd
000003f0: 19cd 8e3e ede1 933e d5bf 5a3e a1cc b0be

encoder.block1.c3.weight f4 [8, 8, 3]
-0.4115945 -0.46471104 -0.6156413 0.064402476 0.024985714 -0.3309494 -0.035274446 0.13432068
0.36193764 -0.26485053 -0.31434205 -0.3644532 -0.08807894 -0.3135777 -0.23612176 -0.049718108
0.47346902 0.38541827 -0.74419254 -0.6340591 -0.6713516 0.25609747 0.1591703 -0.13914983
0.49537405 0.5042512 0.44867733 0.117634684 -0.11312199 -0.21557897 0.3073242 0.0604837
0.12770364 0.0615616 0.088543385 0.26099584 0.10153961 0.047012124 -0.0634539 0.29414457
0.39826033 0.65917313 0.2970289 0.3309421 0.09848478 0.07919621 0.20012148 0.14690253
-0.28192654 -0.42961013 -0.40073097 0.10104574 0.17945442 0.40816838 0.111618385 0.008204167
0.17664827 -0.36176488 -0.28697348 -0.42916662 0.28619826 0.03700423 0.025501492 -0.56358033
0.21135476 0.31319147 0.12516455 0.12985252 0.17749605 0.38679978 0.3306159 0.022218151
0.09722476 0.20224294 0.34659272 -0.44506833 -0.024258021 -0.08228156 0.08953747 -0.20603187
0.014581464 0.4185291 0.37493724 0.045561675 -0.103838 0.04413451 -0.20949754 0.48645762
0.43846282 -0.016094193 -0.8287257 -0.47130215 -0.108577944 -0.091355525 -0.23159605 0.42952666
-0.7504594 0.216677 0.4801898 -0.38398442 -0.13910276 0.4287828 -0.6099858 0.18458809
0.46231726 0.4871146 -0.33383673 -0.49811214 -0.16366349 0.22146678 -0.056499436 0.13436121
0.19988333 0.0069628796 0.40844154 0.0011247738 -0.31537953 0.160129 0.27014738 -0.3409965
0.08409024 0.0065155225 0.006103508 -0.116504036 -0.3218864 -0.62777233 0.21237159 -0.2621666
-0.62694395 -0.4463366 0.054034963 -0.42756817 0.4302004 0.27974087 0.37567726 -0.1937899
0.24664085 0.27587184 0.28119752 0.28115594 0.0801157 0.36344442 0.065054566 0.33871382
-0.086258866 -0.008755791 0.1505977 0.17094089 0.12189027 0.0017441013 0.019275015 0.14861554
0.047879614 -0.09987 -0.42623466 -0.15427613 0.41505522 0.5309766 0.47813374 -0.22728573
-0.17915402 -0.30047697 0.13104878 -0.04691929 -0.12299723 0.343975 -0.017071795 -0.5310125
-0.3193119 -0.71422124 -0.072290555 -0.17062274 0.31371966 0.1925291 -0.041832376 -0.22793552
-0.18218623 0.25073192 0.56419426 0.35682794 0.32069477 0.21681 -0.29175577 0.064284116
0.33496797 0.14804086 0.07497665 -0.09960391 -0.26784074 -0.05010483 -0.06492774 -0.02128405
00000000: 84bc d2be 9bee edbe ab9a 1dbf 72e5 833d
00000010: d7ae cc3c 3372 a9be f07b 10bd 5c8b 093e
00000020: e44f b93e 7d9a 87be 71f1 a0be 9c99 babe
00000030: bb62 b4bd 428d a0be e7c9 71be 37a5 4bbd
00000040: 886a f23e 8b55 c53e 6783 3ebf b251 22bf
00000050: b3dd 2bbf 351f 833e 8afd 223e 4b7d 0ebe
00000060: aba1 fd3e 9b16 013f 09b9 e53e 74ea f03d
00000070: 80ac e7bd bcc0 5cbe 9959 9d3e c2bd 773d
00000080: bec4 023e 0428 7c3d 3c56 b53d 3fa1 853e
00000090: 00f4 cf3d c98f 403d 1ef4 81bd 1e9a 963e
000000a0: c7e8 cb3e 92bf 283f 2c14 983e 3e71 a93e
000000b0: 63b2 c93d 9f31 a23d a5ec 4c3e 9e6d 163e
000000c0: ad58 90be dcf5 dbbe 9c2c cdbe 12f1 ce3d
000000d0: e6c2 373e 72fb d03e 2e98 e43d c56a 063c
000000e0: 49e3 343e 3f39 b9be 30ee 92be babb dbbe
000000f0: 9488 923e bf91 173d 81e8 d03c cd46 10bf
00000100: 626d 583e a25a a03e 232b 003e 0ff8 043e
00000110: 86c1 353e 9f0a c63e 7d46 a93e d702 b63c
00000120: c61d c73d c618 4f3e 9a74 b13e ffdf e3be
00000130: c2b8 c6bc 3c83 a8bd 6c5f b73d 05fa 52be
00000140: 18e7 6e3c 7249 d63e c6f7 bf3e e19e 3a3d
00000150: 04a9 d4bd 63c6 343d 8686 56be f910 f93e
00000160: 337e e03e f8d7 83bc 5e27 54bf 844e f1be
00000170: 1d5e debd 9b18 bbbd 8427 6dbe ebea db3e
00000180: 1b1e 40bf 93e0 5d3e 70db f53e 9b99 c4be
00000190: f470 0ebe 6b89 db3e 0828 1cbf a904 3d3e
000001a0: d9b4 ec3e 1667 f93e a6ec aabe 8e08 ffbe
000001b0: 6797 27be 30c8 623e f46b 67bd fc95 093e
000001c0: 37ae 4c3e de28 e43b 401f d13e 256d 933a
000001d0: 6d79 a1be dbf8 233e c250 8a3e 1897 aebe
000001e0: 8137 ac3d 2a80 d53b f0ff c73b ab99 eebd
000001f0: 4bce a4be b0b5 20bf f077 593e b33a 86be
00000200: 667f 20bf 3b86 e4be c453 5d3d 37ea dabe
00000210: 3a43 dc3e 323a 8f3e c558 c03e dc70 46be
00000220: 6b8f 7c3e 133f 8d3e 1ff9 8f3e acf3 8f3e
00000230: b313 a43d 6315 ba3e 543b 853d e66b ad3e
00000240: 7da8 b0bd 7374 0fbc 4936 1a3e 210b 2f3e
00000250: 9ba1 f93d 549a e43a a3e6 9d3c ac2e 183e
00000260: 6a1d 443d a488 ccbd 6e3b dabe 90fa 1dbe
00000270: 1e82 d43e 15ee 073f f2cd f43e 97bd 68be
00000280: 2774 37be 1ed8 99be a731 063e 712e 40bd
00000290: f9e5 fbbd 7e1d b03e 26da 8bbc 6ff0 07bf
000002a0: d97c a3be 34d7 36bf 120d 94bd bab7 2ebe
000002b0: dd9f a03e 5926 453e 6d58 2bbd ee67 69be
000002c0: 078f 3abe ef5f 803e 096f 103f 27b2 b63e
000002d0: 1b32 a43e 7103 5e3e 0361 95be 64a7 833d
000002e0: ec80 ab3e 0698 173e 5c8d 993d 23fd cbbd
000002f0: 6c22 89be b93a 4dbd d6f8 84bd e35b aebc

encoder.block1.c4.weight f4 [8, 1, 1]
1.2191491 -2.4288166 -0.43911666 -1.9642334 1.2467467 -0.31478244 -2.6529262 3.0962625
00000000: 140d 9c3f bb71 1bc0 e6d3 e0be 006c fbbf
00000010: 6595 9f3f 2a2b a1be 8bc9 29c0 2a29 4640

encoder.block2.c1.weight f4 [16, 8, 8]
-0.13201977 0.050952137 -0.2028955 -0.053206306 0.07766123 -0.3647603 -0.5142317 -0.14700788
-0.3646156 -0.17945708 0.2833854 0.33888018 0.34250423 0.13970007 0.19533911 0.015559285
-0.114538066 -0.10536556 0.016326502 0.050456125 0.09137717 0.22899738 -0.07318938 -0.13259706
0.11458412 0.1296277 0.06116675 -0.03186254 0.19559744 0.5630316 0.739376 0.7192025
-1.4850811 -0.886302 -0.5473905 -0.15588754 0.058170278 -0.08368516 -0.18157552 -0.16539232
-0.18968014 0.18793851 0.15906473 0.2873 0.18120797 -0.01960029 -0.32856768 -0.88926184
-0.39999932 -0.1745436 0.12896791 -0.04653025 -0.0602438 -0.024350654 0.1330758 0.20937817
-0.04566393 -0.17098705 -0.65839 -0.09424522 0.17810653 0.25548643 0.34383106 0.23330946
0.52288496 0.5232754 0.52223307 0.19932567 0.062698536 -0.14915185 -0.012854372 -0.30090025
0.12628363 -0.12236877 0.018879823 -0.017780527 0.1420922 -0.16495182 -0.22419713 -0.2513392
0.8321719 0.35491294 0.12415397 -0.024936497 -0.11497873 -0.10458695 -0.082798265 -0.03812149
-1.4761013 -1.2340627 -1.1324767 -1.0461574 -1.0525565 -1.3724741 -1.2090014 -1.3107858
0.84022605 0.32402498 -0.061084975 0.05282938 0.46926874 0.51449645 0.2730063 0.55111235
-0.14834532 -0.043087505 0.10459754 0.094266415 0.15209003 0.19749688 0.0755901 0.36706188
0.24452962 0.501817 0.39646727 0.20727481 0.09348173 -0.19583078 -0.22451286 -0.19706309
-0.12541936 -0.031629074 -0.22189927 -0.21611863 -0.25430432 -0.118873574 -0.20511326 -0.49979666
0.13022457 0.07539378 0.1963224 0.081756145 0.053946596 0.024753487 -0.06451818 -0.003208479
0.14247268 0.09995088 0.16313958 -0.058766607 0.049282648 -0.054050073 -0.0035264113 -0.10972757
0.10293646 0.11601976 -0.014949476 -0.0131330965 -0.08802733 -0.17216012 -0.10242609 -0.107621506
0.47312474 0.42090446 0.42297363 0.100671634 0.15074195 0.14617524 0.011075106 0.17678869
-0.2934979 -0.57169086 -0.49384356 -0.4082191 -0.528252 -0.57630527 -0.61642987 -0.6311075
0.44047752 0.3119238 0.27219144 0.1763642 0.273023 0.2055186 0.44927946 0.8620187
0.18816443 0.20897767 0.09488735 0.23726152 0.09433819 0.1495533 -0.037531685 -0.0050316225
-0.18301418 -0.0939524 -0.19446377 -0.42148477 -0.4413784 -0.33770165 -0.18801497 -0.74074197
0.2991209 0.10462931 0.03661568 0.0114015015 -0.27152893 -0.12512513 -0.045031253 0.03832301
0.028456543 0.009657697 0.12532677 -0.081596285 0.067005426 0.12969725 0.010633079 0.08934831
0.086720765 0.09362754 0.17228848 -0.034065094 0.13526009 0.1811879 0.06602682 0.21515065
1.4257928 1.315659 1.2266412 1.1718279 1.2550534 0.91442865 0.8463435 0.60651636
-0.09239539 -0.08782078 -0.14137271 -0.07261881 0.13691847 0.0781165 -0.2435827 -0.14924106
-0.12305533 -0.047972936 -0.057659272 -0.03216832 -0.04618919 -0.08457202 -0.33091092 -0.28685203
0.04993607 0.020173172 0.038082507 -0.054510225 0.16001771 0.002827406 -0.120639704 -0.38834053
-0.06303148 0.30836713 0.26612368 0.36367372 -0.062700175 -0.56766415 0.024897562 0.41577867
00000000: 3130 07be 30b3 503d d7c3 4fbe dbee 59bd
00000010: da0c 9f3d ddc1 babe b0a4 03bf 3c89 16be
00000020: e5ae babe 99c3 37be e417 913e b481 ad3e
00000030: b75c af3e 890d 0f3e fa06 483e 5fec 7e3c
00000040: ef92 eabd e6c9 d7bd 28bf 853c 15ab 4e3d
00000050: f423 bb3d 4a7e 6a3e 50e4 95bd 86c7 07be
00000060: 14ab ea3d 20bd 043e fc89 7a3d 4b82 02bd
00000070: b24a 483e d722 103f bf47 3d3f a81d 383f
00000080: 2317 bebf b0e4 62bf c921 0cbf fca0 1fbe
00000090: f543 6e3d 2063 abbd efee 39be 9b5c 29be
000000a0: 833b 42be f472 403e dde1 223e fc18 933e
000000b0: 958e 393e ca90 a0bc 063a a8be aaa6 63bf
000000c0: b6cc ccbe 8fbb 32be 2a10 043e 8196 3ebd
000000d0: 34c2 76bd 067b c7bc 0645 083e 3b67 563e
000000e0: 1a0a 3bbd 3b17 2fbe 3f8c 28bf a303 c1bd
000000f0: 8f61 363e 1ecf 823e a00a b03e ade8 6e3e
00000100: cadb 053f 60f5 053f 11b1 053f 071c 4c3e
00000110: 1768 803d 43bb 18be 259b 52bc 990f 9abe
00000120: 7f50 013e 7a9c fabd dca9 9a3c 78a8 91bc
00000130: 9e80 113e 21e9 28be ef93 65be 88af 80be
00000140: 3809 553f 26b7 b53e 7044 fe3d a047 ccbc
00000150: f879 ebbd af31 d6bd 2392 a9bd 4825 1cbd
00000160: e3f0 bcbf c4f5 9dbf fff4 90bf 7ce8 85bf
00000170: 2cba 86bf 3bad afbf 8fc0 9abf d4c7 a7bf
00000180: 0e19 573f 9ae6 a53e 3d34 7abd 9f63 583d
00000190: fe43 f03e 0ab6 033f 7bc7 8b3e b315 0d3f
000001a0: d6e7 17be 867c 30bd 3c37 d63d c00e c13d
000001b0: 7dbd 1b3e 9f3c 4a3e fbce 9a3d 89ef bb3e
000001c0: f965 7a3e 1477 003f c2fd ca3e d93f 543e
000001d0: 5973 bf3d dd87 48be b3e6 65be e8ca 49be
000001e0: ef6d 00be 7d8d 01bd 9039 63be 344e 5dbe
000001f0: 2d34 82be fd73 f3bd 3609 52be 59e5 ffbe
00000200: 9759 053e 0e68 9a3d bd08 493e c46f a73d
00000210: 1bf7 5c3d d3c7 ca3c 1c22 84bd 5845 52bb
00000220: 5ce4 113e 0cb3 cc3d 100e 273e 41b5 70bd
00000230: 9adc 493d 9c63 5dbd 5d1b 67bb d9b8 e0bd
00000240: 5ad0 d23d c59b ed3d a6ee 74bc 332c 57bc
00000250: ac47 b4bd be4a 30be c5c4 d1bd aa68 dcbd
00000260: 683d f23e ca80 d73e 0090 d83e ee2c ce3d
00000270: 195c 1a3e f6ae 153e 5d74 353c 1808 353e
00000280: 5b45 96be 555a 12bf 10d9 fcbe 1802 d1be
00000290: 863b 07bf be88 13bf 59ce 1dbf 4390 21bf
000002a0: 4586 e13e 7ab4 9f3e ad5c 8b3e d198 343e
000002b0: acc9 8b3e 7873 523e f507 e63e 42ad 5c3f
000002c0: 2dae 403e 3efe 553e 4d54 c23d aff4 723e
000002d0: 6234 c13d 8024 193e d3ba 19bd 4fe0 a4bb
000002e0: 1268 3bbe 1e6a c0bd 8321 47be dacc d7be
000002f0: 5afc e1be 3be7 acbe ff86 40be 44a1 3dbf
00000300: 6026 993e e447 d63d 53fa 153d 5dcd 3a3c
00000310: d705 8bbe cd20 00be b172 38bd 97f8 1c3d
00000320: b21d e93c 513b 1e3c a955 003e f41b a7bd
00000330: 243a 893d 5bcf 043e 5e36 2e3c 3ffc b63d
00000340: a89a b13d ccbf bf3d 646c 303e d787 0bbd
00000350: 9f81 0a3e 5289 393e 1239 873d 7450 5c3e
00000360: 6180 b63f 8467 a83f 9402 9d3f 75fe 953f
00000370: 97a5 a03f ff17 6a3f f8a9 583f a844 1b3f
00000380: cb39 bdbd 62db b3bd 02c4 10be 2cb9 94bd
00000390: 5b34 0c3e 8bfb 9f3d be6d 79be a6d2 18be
000003a0: 6f04 fcbd 457f 44bd 212c 6cbd eec2 03bd
000003b0: e030 3dbd 1834 adbd 286d a9be 45de 92be
000003c0: c489 4c3d 3542 a53c 67fc 1b3d 1d46 5fbd
000003d0: afdb 233e 004c 393b f311 f7bd 92d4 c6be
000003e0: a616 81bd 4ce2 9d3e 5d41 883e 7133 ba3e
000003f0: f368 80bd 7052 11bf f9f5 cb3c f1e0 d43e

encoder.block2.c2.weight f4 [16, 16, 5]
0.42743078 0.55334425 0.5886736 0.48438433 0.13312319 0.13313758 0.0014025103 -0.07387168
-0.24496524 -0.5280934 -0.38638523 -0.3365918 -0.21576169 -0.27055192 -0.2133765 0.4979351
0.4026167 0.20780647 0.22298963 0.60656846 -0.16307843 0.26904562 0.31069142 0.021947732
-0.046767287 0.28437293 0.39378732 0.22307998 0.17164262 0.11389552 0.11684631 0.004920744
0.060983784 0.06718477 0.10559768 -0.38915378 -0.4317585 -0.5328438 -0.36333656 -0.29599637
0.030766955 0.09772211 0.14894134 0.15045758 0.17726895 -0.40148193 -0.38582793 -0.22908002
-0.12708017 -0.19365029 -0.08589416 0.016693901 -0.28390488 -0.29628143 -0.10237012 0.23818539
0.2370646 0.25710076 0.2050473 0.025894612 -0.042569943 0.08690976 0.03769274 -0.2988413
-0.60207653 -0.6541125 -0.43644115 -0.54283035 -0.47162688 -0.5729048 0.3664599 0.36375582
0.27650437 0.28844 0.24821812 -0.54064953 -0.37521353 -0.36757863 -0.533176 -0.68686974
0.17734152 -0.012084433 0.087041475 0.24705964 0.45320255 -0.18001272 -0.13988784 0.065578535
0.10701995 0.14429055 -0.16339006 -0.03150218 0.12878343 0.16696307 0.2254143 0.40397808
0.3392436 0.36589867 0.3960413 0.29816282 -0.044658564 0.10763563 0.27505875 0.25840065
0.35081083 -0.16271886 -0.15662022 -0.10775726 0.13587612 0.27454868 0.29203507 0.33082727
0.2928085 0.26004854 0.3054449 -0.5192604 -0.43376735 -0.34228736 -0.24592559 -0.24837282
-0.39746884 -0.07626557 -0.10961516 0.12601139 0.18875365 0.1694032 0.15486613 0.18597785
0.26905814 0.47043684 0.05321062 0.108464465 0.13983262 0.3971885 0.600397 -0.32665855
-0.35812446 -0.278378 -0.11856572 -0.2170399 0.053682975 0.15734036 -0.016355641 0.031685364
0.12475741 -0.64035475 -0.51224977 -0.36465245 -0.0791006 0.035214093 0.028720748 0.097902894
0.09966919 0.008297466 -0.12461663 -0.48634925 -0.2777559 -0.27697104 0.04847942 0.03624003
0.20939448 0.18292099 -0.055674497 0.02899685 0.2338831 -0.3567789 -0.16748911 -0.036372762
-0.00047618002 -0.14649858 -0.43709505 0.02330812 0.10461731 0.09683585 -0.50912136 0.3222136
0.21425769 0.22653483 0.26210973 0.34248552 -0.7679009 -0.6156655 -0.49659738 -0.44994268
-0.3388081 0.12494831 0.050260272 0.03333986 0.22268946 0.6070863 0.27055436 0.2741229
0.23506197 0.35902578 0.5103307 -0.57407993 -0.28584555 0.029128779 0.29925898 0.27995276
0.17835157 0.1845322 0.24455927 0.27096224 0.31616145 0.11465363 0.090471536 0.088535175
0.19572376 0.5619552 -0.20980716 -0.279847 -0.14490068 0.064031966 0.5745939 0.07097407
0.0064715603 0.1675346 0.36210695 0.66630524 -0.16344939 0.14648068 0.29371804 -0.14449598
-0.459372 -0.57454795 -0.49139637 -0.5286849 -0.5294338 -0.6054745 -0.5238707 -0.26530042
-0.33337778 -0.16821536 -0.08967168 -0.3694363 -0.33416623 -0.13001406 -0.2970382 -0.45599762
-0.50684476 -0.47317103 -0.31476107 -0.3886281 -0.4367347 0.7016384 0.4734019 0.44917047
0.41951776 0.4285031 -0.20209092 -0.14084259 -0.17137016 -0.023852672 -0.034548495 -0.31651235
00000000: 35d8 da3e f8a7 0d3f 50b3 163f 3901 f83e
00000010: 7251 083e 3855 083e 70d4 b73a 094a 97bd
00000020: 2bd8 7abe 2131 07bf 49d4 c5be c355 acbe
00000030: a2f0 5cbe c885 8abe 5f7f 5abe 59f1 fe3e
00000040: c723 ce3e 38cb 543e 6557 643e 1248 1b3f
00000050: 08fe 26be 59c0 893e f212 9f3e bbcb b33c
00000060: 0e8f 3fbd 5499 913e 7e9e c93e 146f 643e
00000070: 15c3 2f3e 0e42 e93d 1e4d ef3d 313e a13b
00000080: 22ca 793d 2b98 893d 9943 d83d 2a3f c7be
00000090: 730f ddbe 7468 08bf 4007 babe d68c 97be
000000a0: fb0a fc3c 8822 c83d 1484 183e 8d11 1a3e
000000b0: fe85 353e 0a8f cdbe 3d8b c5be f493 6abe
000000c0: 4e21 02be 434c 46be 47e9 afbd a6c1 883c
000000d0: fb5b 91be 33b2 97be 6da7 d1bd dfe6 733e
000000e0: 10c1 723e b6a2 833e ebf7 513e f020 d43c
000000f0: d25d 2ebd bffd b13d b463 1a3d ba01 99be
00000100: b021 1abf eb73 27bf 3775 dfbe eef6 0abf
00000110: 1479 f1be e4a9 12bf a2a0 bb3e 343e ba3e
00000120: fb91 8d3e 68ae 933e e42c 7e3e 0268 0abf
00000130: fd1b c0be 4433 bcbe 397e 08bf b2d6 2fbf
00000140: 0499 353e c9fd 45bc cd42 b23d 34fd 7c3e
00000150: 2a0a e83e 4155 38be c23e 0fbe 0a4e 863d
00000160: 472d db3d e7c0 133e b94f 27be 6e08 01bd
00000170: cedf 033e 5ef8 2a3e 02d3 663e 37d6 ce3e
00000180: 56b1 ad3e 1257 bb3e edc5 ca3e cca8 983e
00000190: e6eb 36bd 1270 dc3d 80d4 8c3e 174d 843e
000001a0: 7a9d b33e c69f 26be 0d61 20be d7af dcbd
000001b0: 1c23 0b3e a591 8c3e 9f85 953e 3162 a93e
000001c0: ffea 953e 1525 853e 4663 9c3e 40ee 04bf
000001d0: c116 debe 4a40 afbe ebd3 7bbe 7255 7ebe
000001e0: 0981 cbbe 2031 9cbd ea7d e0bd 2109 013e
000001f0: a348 413e 0878 2d3e 3a95 1e3e fa70 3e3e
00000200: fdc1 893e 19dd f03e 61f3 593d 9e22 de3d
00000210: 4830 0f3e 4b5c cb3e 9eb3 193f ca3f a7be
00000220: 175c b7be 9087 8ebe 96d2 f2bd b53f 5ebe
00000230: aee2 5b3d d51d 213e 44fc 85bc 83c8 013d
00000240: d080 ff3d 4aee 23bf cd22 03bf bab3 babe
00000250: 7fff a1bd a73c 103d c647 eb3c 5081 c83d
00000260: 5c1f cc3d 18f2 073c 0137 ffbd c502 f9be
00000270: 0536 8ebe 26cf 8dbe 5b92 463d 6d70 143d
00000280: 826b 563e a44f 3b3e f10a 64bd cd8a ed3c
00000290: 0d7f 6f3e b9ab b6be 4482 2bbe 9bfb 14bd
000002a0: cda7 f9b9 b903 16be ecca dfbe acf0 be3c
000002b0: 9a41 d63d e051 c63d c755 02bf 2ef9 a43e
000002c0: 5e66 5b3e bff8 673e 3f33 863e 435a af3e
000002d0: 2795 44bf 419c 1dbf 0342 febe e35e e6be
000002e0: 4178 adbe e6e4 ff3d b7dd 4d3d 618f 083d
000002f0: b508 643e 026a 1b3f 1a86 8a3e d659 8c3e
00000300: 16b4 703e 3ad2 b73e 08a5 023f e7f6 12bf
00000310: 595a 92be 7a9f ee3c 7938 993e f855 8f3e
00000320: cba1 363e 02f6 3c3e bf6d 7a3e 90bb 8a3e
00000330: eadf a13e 86cf ea3d 2449 b93d ee51 b53d
00000340: cf6b 483e 4cdc 0f3f b0d7 56be 1b48 8fbe
00000350: d860 14be 3123 833d 9618 133f da5a 913d
00000360: 620f d43b 318e 2b3e 1566 b93e fb92 2a3f
00000370: 475f 27be 08ff 153e 3662 963e c1f6 13be
00000380: cf32 ebbe 9315 13bf 4e98 fbbe e557 07bf
00000390: f988 07bf 6000 1bbf 641c 06bf 75d5 87be
000003a0: 7eb0 aabe a640 2cbe c9a5 b7bd c126 bdbe
000003b0: d617 abbe 6822 05be 6415 98be 8578 e9be
000003c0: 94c0 01bf 7943 f2be 5d28 a1be 43fa c6be
000003d0: b19b dfbe 939e 333f bc61 f23e acf9 e53e
000003e0: 08cb d63e c264 db3e ecf0 4ebe 0a39 10be
000003f0: a97b 2fbe ae66 c3bc b982 0dbd e80d a2be

encoder.block2.c3.weight f4 [16, 16, 3]
0.09919578 0.03573953 -0.23734371 -0.48482102 -0.45960897 -0.36113802 -0.3097876 -0.48392898
-0.4930826 -0.1746786 0.04456356 0.06754266 -0.25591093 -0.48711497 -0.44083834 -0.031017302
-0.11491677 -0.29640377 -0.53443104 -0.23996687 -0.20233256 0.0027533623 -0.056730084 0.09237697
-0.21901128 0.0540342 0.017748643 0.17077564 0.06400121 0.04889947 0.16230921 0.23172626
0.4464685 0.003091811 0.23450807 0.2616086 -0.117673054 0.009181743 0.05724734 0.18106562
-0.114836045 -0.066705465 0.12372877 0.046982907 -0.0032947233 0.1700346 0.3395954 0.16076812
-0.57550097 -0.49811298 -0.7639346 -0.3277921 -0.1617772 -0.29787374 -0.31149477 -0.3271828
-0.2735358 -0.06938686 -0.025296627 -0.15282986 -0.6955479 -0.8078544 -0.9191364 0.25268963
0.21996719 0.35160998 -0.5784533 -0.59652954 -0.36125952 -0.4106208 -0.49978378 -0.37822956
-0.42999482 -0.42222446 -0.13731931 -0.026115162 0.08592639 -0.1969342 -0.8772649 -0.7136048
-0.854871 -0.19718206 -0.1530375 -0.1747787 -0.38579652 -0.27453142 -0.31719735 0.45073384
0.44623035 0.3698117 0.12596631 0.27281716 0.27030918 0.1676334 0.15579057 0.29362375
-0.060423903 -0.09933481 0.03322227 0.20465247 0.049487524 0.062980786 0.011411284 0.010200888
-0.39637533 -0.42792925 -0.3199193 -0.30175367 0.49775442 0.32608387 0.2674239 0.23010984
0.2417943 -0.17346464 -0.0733339 -0.13084999 0.077224195 -0.028255032 0.051014576 -0.07554157
0.2319041 0.058854867 0.12088789 -0.59168017 -0.5481255 -0.65757537 -0.09761255 -0.042369813
0.027521309 0.15426566 0.066409245 0.10173261 -0.15553817 -0.13490382 -0.37871394 -0.20585838
-0.041717593 -0.057017162 -0.26673457 -0.26880103 -0.18447639 0.04667054 -0.0431665 0.0035216752
0.26106 0.30835858 0.2148924 0.23584367 0.06856657 -0.06602656 0.19492626 0.40559337
0.24323796 -0.5636692 -0.47846544 -0.25360388 -0.0846416 -0.17126597 -0.12772493 0.21502578
0.33738935 0.34605038 -0.31023377 -0.18762395 -0.037040398 -0.102364 -0.0029628468 -0.33051085
-0.14045875 -0.011239584 -0.13460006 0.07064012 0.20802538 0.13823259 -0.45632845 -0.19867806
-0.19382073 0.16072646 0.20883529 0.44411036 -0.033133134 -0.08383839 0.25998268 0.16394548
0.26054114 0.10267196 -0.30405974 -0.15551963 0.1568822 -0.30356276 -0.18322654 -0.19768794
-0.9594155 -0.761828 -0.76080763 -0.15661252 -0.1934555 -0.14427486 0.12719223 -0.0059980657
-0.37125754 -0.630619 -0.44852358 -0.50547343 0.13875529 0.24678104 0.19309066 0.22688477
0.1711762 0.20781863 -0.11418457 0.14275418 0.19350271 -0.36209443 -0.38182425 -0.268263
-0.16718785 -0.12429489 -0.10747354 -0.4253079 -0.30449772 -0.27367705 0.0069366232 0.050048254
0.36107567 0.07108899 0.1406292 0.18288095 -0.2688805 -0.116594695 -0.4273183 -0.138197
-0.040524013 -0.0054836515 0.057250403 0.08584389 -0.21101518 0.18023802 0.07309226 0.1504763
-0.27172628 -0.2215923 -0.50221646 0.62172204 0.5905453 0.50559103 0.17016615 -0.13369201
-0.7473372 -0.8719097 -0.6167809 -0.4067141 0.055577014 -0.11150413 0.1341137 0.062198997
00000000: 2827 cb3d 9d63 123d 3b0a 73be 763a f8be
00000010: de51 ebbe 15e7 b8be 7b9c 9ebe 8ac5 f7be
00000020: 5375 fcbe f2de 32be 4888 363d ce53 8a3d
00000030: c206 83be 2267 f9be 90b5 e1be ff17 febc
00000040: 7c59 ebbd 3cc2 97be 79d0 08bf e0b9 75be
00000050: 4430 4fbe c171 343b ce5d 68bd 2330 bd3d
00000060: 7e44 60be f752 5d3d 9a65 913c cfdf 2e3e
00000070: 1113 833d d04a 483d 6334 263e a649 6d3e
00000080: 8597 e43e fb9f 4a3b e222 703e 90f1 853e
00000090: 92fe f0bd 056f 163c 307c 6a3d 4469 393e
000000a0: 292f ebbd e09c 88bd 8265 fd3d 2671 403d
000000b0: 49ec 57bb 8d1d 2e3e 73df ad3e 66a0 243e
000000c0: 0854 13bf aa08 ffbe 3891 43bf 5ed4 a7be
000000d0: eca8 25be e882 98be 3e7c 9fbe 8184 a7be
000000e0: e20c 8cbe b31a 8ebd df3a cfbc 6e7f 1cbe
000000f0: 6d0f 32bf 8ccf 4ebf 864c 6bbf 8960 813e
00000100: 143f 613e 3906 b43e 8415 14bf 29b6 18bf
00000110: 02f7 b8be e43c d2be a9e3 ffbe 4ea7 c1be
00000120: 4828 dcbe ce2d d8be 6f9d 0cbe 77ef d5bc
00000130: 2dfa af3d 1ea9 49be 6f94 60bf ceae 36bf
00000140: d3d8 5abf 18ea 49be ddb5 1cbe 30f9 32be
00000150: 1f87 c5be 628f 8cbe b167 a2be 96c6 e63e
00000160: 4e78 e43e f657 bd3e 50fd 003e b1ae 8b3e
00000170: f765 8a3e 17a8 2b3e 9087 1f3e da55 963e
00000180: 0e7f 77bd 0d70 cbbd 1314 083d 6b90 513e
00000190: 6eb3 4a3d 12fc 803d 65f6 3a3c a021 273c
000001a0: b5f1 cabe 8b19 dbbe 76cc a3be 757f 9abe
000001b0: abd9 fe3e 77f4 a63e c9eb 883e eaa1 6b3e
000001c0: ed98 773e b7a0 31be 1530 96bd 8afd 05be
000001d0: b827 9e3d 1977 e7bc a9f4 503d 8ab5 9abd
000001e0: 4578 6d3e cd11 713d 1294 f73d 5a78 17bf
000001f0: f451 0cbf dc56 28bf 17e9 c7bd f88b 2dbd
00000200: 5e74 e13c d1f7 1d3e 9201 883d 3059 d03d
00000210: 6645 1fbe 3a24 0abe cbe6 c1be 8acc 52be
00000220: 11e0 2abd d48a 69bd 6f91 88be 4aa0 89be
00000230: 61e7 3cbe 9c29 3f3d 5bcf 30bd e8cb 663b
00000240: a8a9 853e 2de1 9d3e c10c 5c3e 0181 713e
00000250: a16c 8c3d ef38 87bd c09a 473e efa9 cf3e
00000260: 5f13 793e a04c 10bf 6cf9 f4be 5ed8 81be
00000270: 9358 adbd 5960 2fbe 53ca 02be b82f 5c3e
00000280: 4cbe ac3e 842d b13e f6d6 9ebe 7e20 40be
00000290: acb7 17bd 38a4 d1bd 522c 42bb b838 a9be
000002a0: 6bd4 0fbe 3b26 38bc 99d4 09be c4ab 903d
000002b0: 9b04 553e d88c 0d3e e2a3 e9be 4372 4bbe
000002c0: f178 46be 7a95 243e ebd8 553e 6f62 e33e
000002d0: 9cb6 07bd 76b3 abbd 731c 853e 53e1 273e
000002e0: a665 853e ad45 d23d b8ad 9bbe 8a40 1fbe
000002f0: baa5 203e 946c 9bbe bd9f 3bbe b56e 4abe
00000300: 419c 75bf 2907 43bf 4ac4 42bf 085f 20be
00000310: 3319 46be cabc 13be ae3e 023e 6c8b c4bb
00000320: 7815 bebe 3f70 21bf e2a4 e5be b566 01bf
00000330: de15 0e3e 2bb4 7c3e 8fb9 453e 7b54 683e
00000340: d048 2f3e 68ce 543e 9ad9 e9bd 272e 123e
00000350: 9325 463e 7164 b9be 787e c3be c559 89be
00000360: 4b33 2bbe 528e febd 161b dcbd f5c1 d9be
00000370: 20e7 9bbe 661f 8cbe 9d4c e33b 66ff 4c3d
00000380: e9de b83e 1b97 913d 1a01 103e 2545 3b3e
00000390: b4aa 89be 33c9 eebd 77c9 dabe 8483 0dbe
000003a0: 82fc 25bd 34b0 b3bb 667f 6a3d ecce af3d
000003b0: 5d14 58be 5190 383e 65b1 953d 7616 1a3e
000003c0: b51f 8bbe 18e9 62be 4291 00bf 2d29 1f3f
000003d0: fa2d 173f 6a6e 013f 0940 2e3e 8fe6 08be
000003e0: 7e51 3fbf 7935 5fbf 5ae5 1dbf d53c d0be
000003f0: b9a4 633d 475c e4bd 1a55 093e 60c4 7e3d

encoder.block2.c4.weight f4 [16, 8, 1]
0.18244204 -0.22064732 -0.12959255 -0.34689116 -0.033110976 0.13999726 -0.111981355 0.10190816
0.18460001 -0.23055121 -0.18648414 -0.8578487 -0.12017379 0.36090484 0.272241 0.16145
0.67868435 0.67528707 0.15498106 0.9473897 -0.47805464 -0.26431438 -0.11562951 0.072047
0.4077884 -0.42917678 -0.11843242 0.116124354 -0.17955114 -0.07201485 -0.023975903 -0.20035787
-0.51702285 0.042268626 0.4298042 0.040183 -0.27323598 0.17769948 0.45517704 -0.0077515203
0.032169443 -0.2165957 0.045784634 1.7936871 -0.3983742 0.6358898 0.49836972 0.48136786
0.085590705 0.3908654 -0.27023104 -0.81645733 0.9341736 0.5450844 0.09225617 -0.041481525
0.11851823 0.5763562 0.26820657 0.47452444 0.284357 0.32195625 0.5568711 0.5333225
0.553243 0.39692515 -0.041337118 -0.24363889 -0.7074174 0.7647483 0.03362338 -0.09194134
0.10332395 -0.8060217 -0.6947209 -0.1084979 0.25273225 -0.33363003 -0.36084998 -0.21959178
0.40391117 0.28847942 0.5666158 0.62334836 -0.28765464 0.5345141 0.110393986 -0.21860486
0.024103478 0.053511757 0.14971957 -0.16431047 0.15787654 -0.08870679 -0.22291672 0.23124367
0.34834865 0.048423734 0.0688111 -0.882106 0.0046020444 0.49374503 -0.12943721 -0.114725396
0.27491835 0.040317833 0.08517727 1.2774633 0.13022982 0.20971683 -0.15259989 0.072946414
0.072916135 -0.033342365 -0.033615448 -1.4533337 0.013374017 0.14619385 0.016369855 -0.018901741
-0.20650057 0.16939202 0.09218017 -0.3673889 -0.070051454 -0.103001416 0.022796264 0.017756272
00000000: 16d2 3a3e 5ff1 61be e9b3 04be b89b b1be
00000010: 609f 07bd 715b 0f3e 7b56 e5bd 3ab5 d03d
00000020: c907 3d3e 9e15 6cbe b3f5 3ebe f99b 5bbf
00000030: ad1d f6bd 85c8 b83e 2c63 8b3e 2653 253e
00000040: 42be 2d3f 9ddf 2c3f 5bb3 1e3e 2288 723f
00000050: 94c3 f4be 3754 87be 2acf ecbd 618d 933d
00000060: a4c9 d03e 0fbd dbbe b28c f2bd 9bd2 ed3d
00000070: 41dc 37be 867c 93bd 1d69 c4bc 9d2a 4dbe
00000080: 9c5b 04bf de21 2d3d 4c0f dc3e ee96 243d
00000090: 96e5 8bbe daf6 353e f70c e93e 7700 febb
000000a0: 1bc4 033d 43cb 5dbe ab88 3b3d 8a97 e53f
000000b0: b4f7 cbbe adc9 223f 512a ff3e d975 f63e
000000c0: 2e4a af3d 821f c83e b95b 8abe 5903 51bf
000000d0: 0026 6f3f a78a 0b3f cef0 bc3d 88e8 29bd
000000e0: b0b9 f23d 148c 133f 5f52 893e def4 f23e
000000f0: 3e97 913e 73d7 a43e 1b8f 0e3f d387 083f
00000100: 55a1 0d3f c639 cb3e 1c51 29bd 797c 79be
00000110: 4f19 35bf 8bc6 433f abb8 093d be4b bcbd
00000120: 829b d33d 7057 4ebf 3bd9 31bf 2634 debd
00000130: 1f66 813e 8ed1 aabe 54c1 b8be abdc 60be
00000140: 72cd ce3e 93b3 933e bc0d 113f c293 1f3f
00000150: 7847 93be ebd5 083f 3e16 e23d f4d9 5fbe
00000160: a874 c53c 252f 5b3d 1650 193e 0141 28be
00000170: 63aa 213e e8ab b5bd 4844 64be 24cb 6c3e
00000180: c15a b23e f757 463d d6ec 8c3d b3d1 61bf
00000190: bfcc 963b 26cc fc3e 308b 04be 26f5 eabd
000001a0: 19c2 8c3e 5024 253d 6c71 ae3d eb83 a33f
000001b0: f75a 053e 02c0 563e 2543 1cbe ee64 953d
000001c0: 0e55 953d 0192 08bd 5ab0 09bd d706 babf
000001d0: b11e 5b3c d7b3 153e 131a 863c d3d7 9abc
000001e0: e374 53be 1a75 2d3e f5c8 bc3d 661a bcbe
000001f0: 2377 8fbd 68f2 d2bd 3bbf ba3c 9a75 913c

encoder.block3.c1.weight f4 [16, 16, 8]
0.25454202 0.22675574 0.11271051 0.15154561 0.0715638 -0.026088981 0.079911165 -0.043998208
0.10911048 0.16003078 0.17221954 0.18069158 0.19356225 0.13976632 0.09631793 -0.0010920451
-0.42549124 -0.27169818 -0.32363418 -0.12375131 -0.15999816 -0.15711325 -0.23216769 -0.383791
0.15801436 0.08803567 -0.0044429884 -0.051440492 -0.022007138 0.050904818 0.24383809 0.3128643
-0.11580499 0.107269816 0.13598563 0.11476693 0.123872414 0.044804774 0.09077909 0.12701966
-0.05955055 -0.013105507 0.031328436 0.08185495 0.09909133 0.1677509 -0.017137824 -0.36477998
0.11068773 0.14100598 0.10497509 -0.041320816 -0.13071585 -0.16264011 -0.1835301 -0.30478096
-0.27698308 -0.06943164 -0.16272059 -0.093179256 -0.12319022 -0.18543865 -0.08674461 -0.1460802
-0.0071201245 0.111033015 0.10461756 0.05213768 -0.025191229 0.016312817 -0.053715184 -0.23351362
0.3028176 0.16107346 0.19598983 0.29057446 0.3306037 0.3801818 0.35683423 0.4855402
-0.23147197 -0.14875792 -0.05891213 -0.12760201 -0.08879195 0.033180017 0.17909545 0.08146773
-0.06429449 -0.05388532 0.12972249 -0.023173701 -0.013184424 -0.11013626 -0.34125343 -0.3149113
0.16798793 0.2535644 0.17325862 0.2908096 0.28282636 0.28195667 0.33093217 0.31245437
0.5613994 0.6700417 0.77897894 0.63872015 0.56058115 0.49193978 0.31307667 0.37312573
0.15480748 0.113693446 0.026346575 -0.09537675 -0.06103542 -0.21129319 -0.20687547 -0.38689497
0.5247879 0.5710816 0.48812124 0.37609327 0.17277057 0.16134372 0.10315343 0.0327493
-0.13464123 -0.1432323 -0.16050145 -0.31225285 -0.30498117 -0.20177487 -0.2045335 -0.24690017
-0.1465798 -0.034168985 -0.12466197 -0.17696488 -0.32255745 -0.26685488 -0.2921347 -0.28200233
0.29421604 0.34534577 0.37937018 0.34058887 0.37325764 0.42277277 0.39016095 0.3151185
-0.74662703 -0.62375546 -0.6185756 -0.49487776 -0.5747504 -0.6541502 -0.77635103 -0.8963606
0.016903577 0.09513963 0.029695304 0.06492676 0.07017389 0.15622985 0.038522366 0.07595268
-0.33858705 -0.48104683 -0.4385923 -0.41459078 -0.39258072 -0.33487102 -0.333939 -0.2421603
-0.21496937 -0.18369035 -0.16635609 -0.21074122 -0.128883 -0.059467003 0.080112524 0.13327996
0.030742997 0.02200016 0.13379134 0.0037252924 -0.018911734 0.07013136 0.115887195 0.19255441
0.16803332 0.110729255 0.15864624 0.19334053 0.19733258 0.18242872 0.16704533 0.18235797
-0.60519445 -0.5219456 -0.4447772 -0.4515673 -0.19974044 -0.15310082 0.013707093 -0.03566383
0.16485286 0.11334325 0.18786505 0.14045107 0.11191823 0.23641814 0.31676608 0.4281326
0.2155474 0.20802201 0.10671604 0.1888648 0.23343942 0.29107752 0.22435248 0.45283166
0.03378747 -0.047316182 0.046435367 -0.07616125 -0.03172674 0.10872129 0.10842576 0.3365956
0.16815558 0.075540066 0.016265552 0.07612124 0.10012268 0.12827009 0.26014975 0.36238205
-0.66541463 -0.45739058 -0.44888186 -0.3783328 -0.39638513 -0.43108398 -0.5238092 -0.51583344
0.33011898 0.25820285 0.24376018 0.40640908 0.38835227 0.5091803 0.4783531 0.6925109
00000000: 5553 823e a832 683e c5d4 e63d c62e 1b3e
00000010: 0b90 923d 8fb8 d5bc 77a8 a33d 7737 34bd
00000020: 5175 df3d 1cdf 233e 525a 303e 3707 393e
00000030: 2f35 463e e71e 0f3e 5642 c53d f422 8fba
00000040: fdd9 d9be 061c 8bbe 61b3 a5be 5471 fdbd
00000050: 8fd6 23be 4ce2 20be 5ebd 6dbe 4180 c4be
00000060: 84ce 213e 0c4c b43d 7d96 91bb 44b3 52bd
00000070: 5048 b4bc 9281 503d b1b0 793e c02f a03e
00000080: 2b2b edbd 47b0 db3d d13f 0b3e ed0a eb3d
00000090: d2b0 fd3d 3685 373d 63ea b93d 7111 023e
000000a0: 47eb 73bd 7bb8 56bc 3f52 003d 91a3 a73d
000000b0: 65f0 ca3d e4c6 2b3e 9f64 8cbc 71c4 babe
000000c0: 40b0 e23d df63 103e 2efd d63d 0440 29bd
000000d0: 60da 05be 218b 26be 51ef 3bbe 400c 9cbe
000000e0: bad0 8dbe 2d32 8ebd 3aa0 26be c4d4 bebd
000000f0: 274b fcbd a1e3 3dbe 28a7 b1bd 0c96 15be
00000100: ef4f e9bb 4765 e33d bb41 d63d 528e 553d
00000110: d65d cebc 75a2 853c 7404 5cbd 321e 6fbe
00000120: e90a 9b3e 71f0 243e 8fb1 483e 2dc6 943e
00000130: e344 a93e 30a7 c23e fab2 b63e ba98 f83e
00000140: fd06 6dbe ff53 18be d84d 71bd 1aaa 02be
00000150: 8ed8 b5bd c5e7 073d cc64 373e 8ed8 a63d
00000160: d4ac 83bd dab6 5cbd f9d5 043e c6d6 bdbc
00000170: 7b03 58bc 1f8f e1bd c5b8 aebe 0e3c a1be
00000180: 0705 2c3e 31d3 813e b56a 313e ffe4 943e
00000190: 9ece 903e a05c 903e f16f a93e 05fa 9f3e
000001a0: dfb7 0f3f da87 2b3f 2a6b 473f 2a83 233f
000001b0: 3f82 0f3f 88df fb3e 964b a03e 560a bf3e
000001c0: da85 1e3e 1cd8 e83d c6d4 d73c e354 c3bd
000001d0: 4700 7abd 3e5d 58be 2ad7 53be 1917 c6be
000001e0: 8058 063f 6732 123f 07eb f93e 4c8f c03e
000001f0: c5ea 303e 4a37 253e 1b42 d33d 2124 063d
00000200: 64df 09be 7dab 12be 7e5a 24be 9bdf 9fbe
00000210: 7e26 9cbe 129e 4ebe 3b71 51be 66d3 7cbe
00000220: 0419 16be c7f4 0bbd c64e ffbd 4836 35be
00000230: 4026 a5be 34a1 88be ae92 95be 9c62 90be
00000240: 7ca3 963e 29d1 b03e cf3c c23e aa61 ae3e
00000250: a01b bf3e ac75 d83e 2dc3 c73e 3657 a13e
00000260: f322 3fbf 70ae 1fbf f85a 1ebf 9e60 fdbe
00000270: d822 13bf 6376 27bf f1be 46bf e377 65bf
00000280: 5f79 8a3c 91d8 c23d 9143 f33c 52f8 843d
00000290: 54b7 8f3d b8fa 1f3e a1c9 1d3d 148d 9b3d
000002a0: 485b adbe c54b f6be 2c8f e0be 3e45 d4be
000002b0: 5700 c9be 3774 abbe 0dfa aabe dff8 77be
000002c0: ee20 5cbe 5319 3cbe 4059 2abe 8ccc 57be
000002d0: e8f9 03be ac93 73bd 0912 a43d 8b7a 083e
000002e0: bdd8 fb3c ae39 b43c 9900 093e 0924 743b
000002f0: c8ec 9abc 08a1 8f3d 4456 ed3d fc2c 453e
00000300: ed10 2c3e 05c6 e23d 2974 223e 0ffb 453e
00000310: 8d11 4a3e 98ce 3a3e ee0d 2b3e 0cbc 3a3e
00000320: 06ee 1abf 3a9e 05bf d6b9 e3be d433 e7be
00000330: c288 4cbe 76c6 1cbe b793 603c 3c14 12bd
00000340: 30cf 283e 8120 e83d b25f 403e 68d2 0f3e
00000350: 6335 e53d 9917 723e 2a2f a23e 3234 db3e
00000360: 75b8 5c3e b903 553e f08d da3d c665 413e
00000370: be0a 6f3e 1d08 953e a8bc 653e 8dd9 e73e
00000380: bb64 0a3d 9dce 41bd 0333 3e3d 6efa 9bbd
00000390: e6f3 01bd 45a9 de3d 530e de3d 4256 ac3e
000003a0: fa30 2c3e c0b4 9a3d 563f 853c 74e5 9b3d
000003b0: 1f0d cd3d 3c59 033e 5932 853e 248a b93e
000003c0: 9d58 2abf 192f eabe d8d3 e5be d6b4 c1be
000003d0: fef2 cabe 0ab7 dcbe 5c18 06bf a90d 04bf
000003e0: 5b05 a93e 2a33 843e 459c 793e da14 d03e
000003f0: 1cd6 c63e a459 023f b3ea f43e 6548 313f

encoder.block3.c2.weight f4 [16, 16, 5]
0.15161514 0.16681354 0.105809174 0.036273066 -0.026816001 -0.25205296 -0.32187122 -0.2421902
-0.26144245 -0.45744494 -0.32203445 -0.3468727 -0.21124665 -0.33408254 -0.11405294 0.08158228
0.2473948 0.39871734 0.5192845 0.4326642 0.39121163 0.29071146 0.051262096 -0.012438663
-0.00084279553 0.2358402 0.14396851 0.05815177 -0.008179103 0.013915784 0.12493089 -0.06386004
-0.0352097 0.0053953407 -0.045602836 -0.5490211 -0.35782942 -0.09839318 0.13671155 0.2038253
0.6945663 0.31509832 0.33703318 0.37496838 0.23495586 -0.16812769 -0.18083936 -0.14774986
-0.032348957 0.01741699 -0.09610478 -0.22860265 -0.18655322 -0.12857606 -0.18386759 -0.080401026
-0.050419547 -0.049687415 0.10165453 0.1586665 0.875285 0.70349014 0.6393346 0.6485347
0.86440194 0.53023267 0.3604953 0.24998815 0.2201742 0.05937262 0.55871296 0.22089924
0.009810501 0.045560632 -0.13829556 -0.05222754 -0.008945311 -0.06993728 -0.28878638 -0.4214397
-0.013564058 0.05645031 0.19235577 0.24373011 0.34945306 0.028961893 -0.039691053 -0.08384684
0.058407634 0.18519853 0.06166289 -0.12203418 -0.16877446 -0.034298506 -0.040984377 -0.16306527
-0.2720008 -0.17572711 -0.12357213 -0.11875062 -0.39568388 -0.2597591 -0.06600999 0.18058988
0.04857005 -0.032656103 0.056622267 0.058521904 0.08078749 0.059391476 -0.120030046 -0.08520529
0.015381386 0.12950014 0.15560749 0.29345736 0.14250438 0.0758878 0.059378605 0.020982116
-0.7299653 -0.57838595 -0.36774555 -0.4692084 -0.4723961 -0.4223954 -0.32573608 -0.3997877
-0.5149289 -0.7171291 -0.1616029 -0.05228417 -0.19984868 -0.07605327 -0.11094671 -0.10890432
-0.08405636 0.07726658 -0.11564076 -0.401304 0.5594762 0.5645718 0.5298466 0.51999986
0.6647338 -0.054728508 0.009562989 0.0012923724 0.08061325 0.11929253 0.36180863 0.38466573
0.47981364 0.28892025 0.105542965 -0.19406742 -0.32605353 -0.28781164 -0.24190514 -0.19220477
0.32594597 0.34840375 0.315579 0.2007199 0.41784367 -0.049475595 0.046679843 -0.01529991
-0.10667485 -0.07779636 0.010888054 -0.072513886 0.06657388 0.053129513 0.017413925 -0.18287009
-0.053405814 0.04792451 -0.08098984 0.14738107 0.5800735 0.6502152 0.53437054 0.6222985
0.7144907 0.13027921 -0.0583046 -0.0024360646 -0.13024145 -0.11193807 -0.050430592 -0.16094044
-0.21922068 -0.22800605 -0.06176225 -0.1400783 0.06292076 -0.007898485 -0.042474758 -0.060309798
0.011100947 -0.07585969 -0.079989836 -0.34426844 -0.35656348 1.0130186 1.0031135 0.81930006
0.8757054 0.95913196 -0.13533558 -0.2541782 -0.15854816 -0.205221 -0.27538207 1.3669057
1.2818215 1.2164261 1.2089384 1.2600433 -0.19032452 -0.17253399 -0.057207834 -0.15915139
-0.13425489 -0.11135868 -0.29057702 -0.20012146 -0.13297988 -0.09183225 -0.111781396 0.10787865
0.08318963 0.086811155 -0.024488665 -0.108633645 -0.09422253 -0.20215741 -0.08556913 -0.2534256
-0.322532 0.011658206 0.06967923 0.113674186 0.088661455 -0.5579607 -0.6775159 -0.8611351
-0.92641234 -0.9274196 0.16883202 0.27091318 0.18814263 0.09944901 0.047740903 0.20221172
00000000: 0041 1b3e 2bd1 2a3e 7bb2 d83d 1193 143d
00000010: 3bad dbbc 160d 81be 4ecc a4be b500 78be
00000020: c9db 85be 3936 eabe b3e1 a4be 4c99 b1be
00000030: 0b51 58be de0c abbe 9694 e9bd 9c14 a73d
00000040: 1055 7d3e ae24 cc3e d4ef 043f 2986 dd3e
00000050: e44c c83e 22d8 943e 34f8 513d 89cb 4bbc
00000060: 0def 5cba 1880 713e 7b6c 133e 8d30 6e3d
00000070: a501 06bc 07ff 633c c4db ff3d 0dc9 82bd
00000080: 0c38 10bd 66cb b03b 0aca 3abd a68c 0cbf
00000090: 6b35 b7be 5d82 c9bd 1dfe 0b3e 94b7 503e
000000a0: 19cf 313f 9154 a13e 9d8f ac3e dbfb bf3e
000000b0: 4598 703e aa29 2cbe f42d 39be bd4b 17be
000000c0: 5780 04bd 13ae 8e3c 95d2 c4bd d016 6abe
000000d0: cf07 3fbe 71a9 03be c947 3cbe 4ba9 a4bd
000000e0: ba84 4ebd 0885 4bbd 4030 d03d 7979 223e
000000f0: ae12 603f ee17 343f 6fab 233f 5f06 263f
00000100: 7249 5d3f 54bd 073f d792 b83e e5fc 7f3e
00000110: 5875 613e b430 733d d007 0f3f 6933 623e
00000120: 39bc 203c c99d 3a3d 5a9d 0dbe 8cec 55bd
00000130: 5b8f 12bc 473b 8fbd cfdb 93be f2c6 d7be
00000140: c83b 5ebc 7138 673d e9f8 443e 6394 793e
00000150: 83eb b23e 7e41 ed3c 1693 22bd e4b7 abbd
00000160: d83c 6f3d afa4 3d3e 3a92 7c3d 0eed f9bd
00000170: 36d3 2cbe 977c 0cbd 3cdf 27bd 95fa 26be
00000180: b043 8bbe cff1 33be 6313 fdbd 8633 f3bd
00000190: 1497 cabe 25ff 84be 3f30 87bd 8eec 383e
000001a0: 64f1 463d 68c2 05bd c0ec 673d aab4 6f3d
000001b0: e973 a53d 7a44 733d 50d2 f5bd 1c80 aebd
000001c0: 3502 7c3c af9b 043e 9257 1f3e 0b40 963e
000001d0: abec 113e 106b 9b3d fb36 733d b0e2 ab3c
000001e0: 02df 3abf 1a11 14bf 2549 bcbe 153c f0be
000001f0: e7dd f1be 3644 d8be e1c6 a6be f9b0 ccbe
00000200: 61d2 03bf c695 37bf 3b7b 25be ed27 56bd
00000210: 22a5 4cbe d1c1 9bbd 0738 e3bd 3a09 dfbd
00000220: be25 acbd f13d 9e3d 10d5 ecbd b877 cdbe
00000230: d539 0f3f c787 103f 07a4 073f b61e 053f
00000240: ff2b 2a3f 002b 60bd 15ae 1c3c d264 a93a
00000250: 8f18 a53d a44f f43d fb3e b93e e8f2 c43e
00000260: 22aa f53e 5bed 933e e926 d83d 9cb9 46be
00000270: 7df0 a6be 0c5c 93be fbb5 77be 54d1 44be
00000280: 64e2 a63e fa61 b23e 9293 a13e 8489 4d3e
00000290: 9bef d53e eca6 4abd 5d33 3f3d 79ac 7abc
000002a0: 5878 dabd b353 9fbd cf63 323c 2982 94bd
000002b0: e357 883d 559e 593d a6a7 8e3c 4c42 3bbe
000002c0: 0ec0 5abd 7e4c 443d 00de a5bd 10eb 163e
000002d0: b27f 143f 8174 263f 82cc 083f f44e 1f3f
000002e0: dde8 363f ea67 053e ced0 6ebd 62a6 1fbb
000002f0: 045e 05be c93f e5bd 4f90 4ebd 92cd 24be
00000300: 637b 60be 6b7a 69be 6afa 7cbd b070 0fbe
00000310: 99dc 803d a668 01bc 03fa 2dbd 6807 77bd
00000320: bfe0 353c 535c 9bbd b6d1 a3bd f443 b0be
00000330: 7d8f b6be 98aa 813f 0666 803f a6bd 513f
00000340: 3b2e 603f ac89 753f 6995 0abe a523 82be
00000350: 735a 22be 7425 52be e1fe 8cbe c4f6 ae3f
00000360: ba12 a43f dab3 9b3f 7ebe 9a3f 1949 a13f
00000370: 6ee4 42be c0ac 30be c352 6abd 95f8 22be
00000380: 1d7a 09be 0510 e4bd 83c6 94be a4ec 4cbe
00000390: e12b 08be 8c12 bcbd a5ed e4bd 7bef dc3d
000003a0: 535f aa3d 0cca b13d 749c c8bc 517b debd
000003b0: bef7 c0bd 5a02 4fbe de3e afbd 00c1 81be
000003c0: ea22 a5be 0f02 3f3c fcb3 8e3d 03ce e83d
000003d0: 2394 b53d 83d6 0ebf af71 2dbf 5a73 5cbf
000003e0: 5c29 6dbf 5f6b 6dbf 4de2 2c3e 22b5 8a3e
000003f0: 76a8 403e ecab cb3d f78b 433d 9710 4f3e
